applications/keyword_detection/ml-model-update-demo/kws_micronet_m.tflite (tflite, 181968 bytes, 12 tensors)

Conv2D;StatefulPartitionedCall/StatefulPartitionedCall/PartitionedCall_2/PartitionedCall/Conv2D i1 [140, 10, 4, 1]
000000 b5 02 cf 01 f9 fc cf ee fb d7 d8 ff f2 df fe 1b
       -75 2 -49 1 -7 -4 -49 -18 -5 -41 -40 -1 -14 -33 -2 27
000010 ea b9 43 33 b0 45 3e fd db 7f 19 e7 55 30 04 e5
       -22 -71 67 51 -80 69 62 -3 -37 127 25 -25 85 48 4 -27
000020 6b ed 03 0b 50 eb 05 0b b2 01 21 31 c9 e2 2d 52
       107 -19 3 11 80 -21 5 11 -78 1 33 49 -55 -30 45 82
000030 a7 cb 2e 62 ab e7 35 6b d7 20 34 35 28 16 e7 ac
       -89 -53 46 98 -85 -25 53 107 -41 32 52 53 40 22 -25 -84
000040 6e 2c ca 81 59 3d d4 94 50 2a e7 b5 5a e3 ed a6
       110 44 -54 -127 89 61 -44 -108 80 42 -25 -75 90 -29 -19 -90
000050 6b da 25 f8 55 e2 12 f0 48 ec 06 f2 23 19 f7 ef
       107 -38 37 -8 85 -30 18 -16 72 -20 6 -14 35 25 -9 -17
000060 ee 11 f7 f8 c7 0a ea 06 be e5 ee 16 b6 b7 f4 16
       -18 17 -9 -8 -57 10 -22 6 -66 -27 -18 22 -74 -73 -12 22
000070 b5 ce f1 ff 81 fb e8 fc f5 0a 0d 00 31 14 e3 64
       -75 -50 -15 -1 -127 -5 -24 -4 -11 10 13 0 49 20 -29 100
000080 36 f5 d5 6f 3f c8 ed 54 33 ca 31 18 f8 fa 5f 8a
       54 -11 -43 111 63 -56 -19 84 51 -54 49 24 -8 -6 95 -118
000090 9f 7f 06 9a a1 42 d2 d8 ce 0b da f4 ee e5 e6 0e
       -97 127 6 -102 -95 66 -46 -40 -50 11 -38 -12 -18 -27 -26 14
0000a0 f9 12 e8 e7 27 0f e1 f8 1e 29 e3 e4 14 34 f3 d6
       -7 18 -24 -25 39 15 -31 -8 30 41 -29 -28 20 52 -13 -42
0000b0 30 ea 32 bb 4d 93 6e c1 1d 81 7d e5 03 a3 5f f6
       48 -22 50 -69 77 -109 110 -63 29 -127 125 -27 3 -93 95 -10
0000c0 e4 c3 3d 02 19 a1 52 04 fb df 03 2a f8 22 ef fd
       -28 -61 61 2 25 -95 82 4 -5 -33 3 42 -8 34 -17 -3
0000d0 f3 04 16 ff 0d 44 47 ed e9 ae bd 06 b9 91 b1 03
       -13 4 22 -1 13 68 71 -19 -23 -82 -67 6 -71 -111 -79 3
0000e0 7f 7e 5e 08 14 ff 1d 0d f7 16 ee f1 ff 0e 06 f4
       127 126 94 8 20 -1 29 13 -9 22 -18 -15 -1 14 6 -12
0000f0 81 1c 5a 16 b3 d8 31 1e 28 bd 1e 14 04 ff 02 00
       -127 28 90 22 -77 -40 49 30 40 -67 30 20 4 -1 2 0

Conv2D;StatefulPartitionedCall/StatefulPartitionedCall/PartitionedCall_6/PartitionedCall/Conv2D i1 [140, 1, 1, 140]
000000 ee c3 f0 fe fe de ff 08 35 fd dd 12 f4 06 f3 f4
       -18 -61 -16 -2 -2 -34 -1 8 53 -3 -35 18 -12 6 -13 -12
000010 0c fb fe db 02 1c 4b fd fb 05 03 18 f3 cd de cf
       12 -5 -2 -37 2 28 75 -3 -5 5 3 24 -13 -51 -34 -49
000020 09 d2 f7 29 e2 06 cc ca ec 1d eb df 0a ec 09 f6
       9 -46 -9 41 -30 6 -52 -54 -20 29 -21 -33 10 -20 9 -10
000030 25 f4 06 02 07 f0 db 1e b8 ee e5 ec 81 0f 15 35
       37 -12 6 2 7 -16 -37 30 -72 -18 -27 -20 -127 15 21 53
000040 e4 f2 48 05 d3 f6 2f 1d f2 e8 65 e3 fc 1a 2a 0e
       -28 -14 72 5 -45 -10 47 29 -14 -24 101 -29 -4 26 42 14
000050 17 06 d8 e9 24 10 f9 26 06 02 18 fe e1 cb 11 31
       23 6 -40 -23 36 16 -7 38 6 2 24 -2 -31 -53 17 49
000060 e5 1b 15 f0 12 e1 0f a9 1a 3b 16 fa fa f3 f2 e4
       -27 27 21 -16 18 -31 15 -87 26 59 22 -6 -6 -13 -14 -28
000070 1c 08 ef b5 f5 19 ec 1e 27 11 e4 c0 08 1b c8 f2
       28 8 -17 -75 -11 25 -20 30 39 17 -28 -64 8 27 -56 -14
000080 ea 1e c6 eb fe 04 16 e3 d3 fe 12 d3 e2 ca 1e 29
       -22 30 -58 -21 -2 4 22 -29 -45 -2 18 -45 -30 -54 30 41
000090 dc 03 fa 07 fd d4 09 f2 25 ba b6 bd be 6a ac 1e
       -36 3 -6 7 -3 -44 9 -14 37 -70 -74 -67 -66 106 -84 30
0000a0 04 38 1f a7 b9 f6 1d fc 9d fc 49 2d 17 b7 ff 2c
       4 56 31 -89 -71 -10 29 -4 -99 -4 73 45 23 -73 -1 44
0000b0 fa be 0c 00 0c 4f 21 fc be fd 07 fd 08 25 e2 15
       -6 -66 12 0 12 79 33 -4 -66 -3 7 -3 8 37 -30 21
0000c0 0e 0b 05 ba d2 18 12 a7 cd cb 01 f0 0c b0 2b e1
       14 11 5 -70 -46 24 18 -89 -51 -53 1 -16 12 -80 43 -31
0000d0 15 08 be 2b d8 e9 28 8d 52 97 4f dc f4 96 3a fd
       21 8 -66 43 -40 -23 40 -115 82 -105 79 -36 -12 -106 58 -3
0000e0 d5 6f 88 ea d1 ce 34 2f 26 d6 46 eb 31 0d ce 9e
       -43 111 -120 -22 -47 -50 52 47 38 -42 70 -21 49 13 -50 -98
0000f0 04 5b f9 cd e3 0f 3e fc 0d df 0a 51 1f 2c 1a e4
       4 91 -7 -51 -29 15 62 -4 13 -33 10 81 31 44 26 -28

Conv2D;StatefulPartitionedCall/StatefulPartitionedCall/PartitionedCall_10/PartitionedCall/Conv2D i1 [140, 1, 1, 140]
000000 ef f0 f5 dd 29 05 24 e9 fb 2f da 11 2d 1d 4d 21
       -17 -16 -11 -35 41 5 36 -23 -5 47 -38 17 45 29 77 33
000010 ec 03 cf cc 00 02 16 db b8 e5 00 3a 31 e9 ec e4
       -20 3 -49 -52 0 2 22 -37 -72 -27 0 58 49 -23 -20 -28
000020 e8 35 ee 23 b8 ff f6 ee f9 06 f2 f9 fc 0a 1d 03
       -24 53 -18 35 -72 -1 -10 -18 -7 6 -14 -7 -4 10 29 3
000030 d0 f9 eb 1b ea 1a e8 03 f1 b4 b9 13 34 c7 2a ea
       -48 -7 -21 27 -22 26 -24 3 -15 -76 -71 19 52 -57 42 -22
000040 81 dd e7 04 05 c4 08 b9 0c 1e 05 d9 1a d8 e0 05
       -127 -35 -25 4 5 -60 8 -71 12 30 5 -39 26 -40 -32 5
000050 da 59 03 eb 17 dc fd 1b f0 22 0b ec fd e8 c4 09
       -38 89 3 -21 23 -36 -3 27 -16 34 11 -20 -3 -24 -60 9
000060 3e c2 f5 f9 ea e1 f8 46 11 2b d0 ff fa 22 ea f7
       62 -62 -11 -7 -22 -31 -8 70 17 43 -48 -1 -6 34 -22 -9
000070 13 c5 0a 10 1e 0f 0e f4 12 17 ab b4 e5 4b dd c3
       19 -59 10 16 30 15 14 -12 18 23 -85 -76 -27 75 -35 -61
000080 08 12 ef 12 fa 37 e0 cd cd df 01 0b fc 0c 10 2c
       8 18 -17 18 -6 55 -32 -51 -51 -33 1 11 -4 12 16 44
000090 c6 cd e0 81 bc d8 a9 c9 df d4 d7 ea d4 1d 06 1b
       -58 -51 -32 -127 -68 -40 -87 -55 -33 -44 -41 -22 -44 29 6 27
0000a0 27 fd b3 d2 2d ee 04 a1 e4 dc 15 1b c8 2f f5 e1
       39 -3 -77 -46 45 -18 4 -95 -28 -36 21 27 -56 47 -11 -31
0000b0 00 fb 7c b7 47 0a f6 31 57 08 39 d5 d6 e3 ed 0e
       0 -5 124 -73 71 10 -10 49 87 8 57 -43 -42 -29 -19 14
0000c0 e5 d7 08 f5 de 18 01 f8 01 34 c1 1a 14 f9 fa e8
       -27 -41 8 -11 -34 24 1 -8 1 52 -63 26 20 -7 -6 -24
0000d0 e3 1d d1 00 0a d6 23 0d 07 e9 29 d3 20 25 2c f1
       -29 29 -47 0 10 -42 35 13 7 -23 41 -45 32 37 44 -15
0000e0 22 1b 35 08 1a db 29 97 7e ab 0f 26 fb d5 ce d6
       34 27 53 8 26 -37 41 -105 126 -85 15 38 -5 -43 -50 -42
0000f0 f2 1a ec c2 f2 0c 1f 0b 01 25 d6 68 f4 e9 28 b2
       -14 26 -20 -62 -14 12 31 11 1 37 -42 104 -12 -23 40 -78

Conv2D;StatefulPartitionedCall/StatefulPartitionedCall/PartitionedCall_14/PartitionedCall/Conv2D i1 [140, 1, 1, 140]
000000 04 fb bb 0a 16 e4 2e 05 27 f4 19 e9 c6 18 ff ed
       4 -5 -69 10 22 -28 46 5 39 -12 25 -23 -58 24 -1 -19
000010 f2 e1 04 02 09 35 39 09 e8 f1 1e 18 ca c5 39 c7
       -14 -31 4 2 9 53 57 9 -24 -15 30 24 -54 -59 57 -57
000020 06 1d 06 05 37 29 df cc 55 e8 f9 01 21 a9 09 e4
       6 29 6 5 55 41 -33 -52 85 -24 -7 1 33 -87 9 -28
000030 e2 da 1c fb cc 47 25 fc 1e 04 23 0f 2c 4f ea 0d
       -30 -38 28 -5 -52 71 37 -4 30 4 35 15 44 79 -22 13
000040 09 f7 fd b4 f1 ec d1 ff 3a cf 34 d1 db 32 cd d8
       9 -9 -3 -76 -15 -20 -47 -1 58 -49 52 -47 -37 50 -51 -40
000050 1f 2e 03 df ea a8 23 1b fe fd 4b fa df ec 39 bd
       31 46 3 -33 -22 -88 35 27 -2 -3 75 -6 -33 -20 57 -67
000060 dc d2 09 12 24 02 e6 e3 09 01 10 1d e9 15 f1 d4
       -36 -46 9 18 36 2 -26 -29 9 1 16 29 -23 21 -15 -44
000070 a9 24 e5 11 c5 03 f3 08 e1 07 ef 7f 1f e6 20 ef
       -87 36 -27 17 -59 3 -13 8 -31 7 -17 127 31 -26 32 -17
000080 e7 e8 f9 d7 21 f2 df f7 d4 1c 2b 07 f3 e2 01 ea
       -25 -24 -7 -41 33 -14 -33 -9 -44 28 43 7 -13 -30 1 -22
000090 f9 ee 03 19 19 0f 12 c9 e4 0b f6 ff 07 03 df df
       -7 -18 3 25 25 15 18 -55 -28 11 -10 -1 7 3 -33 -33
0000a0 cf c2 c7 cc f6 f5 ce bb 03 0d 1d 0c e6 00 01 41
       -49 -62 -57 -52 -10 -11 -50 -69 3 13 29 12 -26 0 1 65
0000b0 ca fe 3f 0f ef f1 27 e0 fb 24 d8 20 f5 f2 bc 19
       -54 -2 63 15 -17 -15 39 -32 -5 36 -40 32 -11 -14 -68 25
0000c0 fe c7 e6 3a ee fe 20 ee e9 d9 01 ec 19 19 ea 1c
       -2 -57 -26 58 -18 -2 32 -18 -23 -39 1 -20 25 25 -22 28
0000d0 00 ef f6 da f2 09 de 0a f2 e4 07 fb a0 d0 f7 13
       0 -17 -10 -38 -14 9 -34 10 -14 -28 7 -5 -96 -48 -9 19
0000e0 d5 f2 e8 1f f1 19 19 b9 f6 0c e6 03 06 42 29 cb
       -43 -14 -24 31 -15 25 25 -71 -10 12 -26 3 6 66 41 -53
0000f0 dd 22 33 e7 db f8 e2 31 81 e0 32 04 da b9 0a 12
       -35 34 51 -25 -37 -8 -30 49 -127 -32 50 4 -38 -71 10 18

Conv2D;StatefulPartitionedCall/StatefulPartitionedCall/PartitionedCall_18/PartitionedCall/Conv2D i1 [112, 1, 1, 140]
000000 ef fb fe fa ec f4 25 f8 03 fd 17 18 7f e8 0d 10
       -17 -5 -2 -6 -20 -12 37 -8 3 -3 23 24 127 -24 13 16
000010 0a f5 0b 23 20 c6 dc f3 12 19 f2 0f 06 cf 2f f1
       10 -11 11 35 32 -58 -36 -13 18 25 -14 15 6 -49 47 -15
000020 f8 2b d1 e8 38 db 17 0b f0 11 a5 12 0f f8 0d 11
       -8 43 -47 -24 56 -37 23 11 -16 17 -91 18 15 -8 13 17
000030 06 2f d1 19 ef 4c ea ba 2e f8 18 60 f6 d3 db 04
       6 47 -47 25 -17 76 -22 -70 46 -8 24 96 -10 -45 -37 4
000040 00 0e 08 f8 10 1c f1 02 e7 ec 15 3f ee 19 ad f3
       0 14 8 -8 16 28 -15 2 -25 -20 21 63 -18 25 -83 -13
000050 12 12 14 fe 0f e9 46 07 37 ff 11 3d 2e e7 de f0
       18 18 20 -2 15 -23 70 7 55 -1 17 61 46 -25 -34 -16
000060 fb 08 f3 1c 28 f8 06 f3 f8 34 66 17 44 fc 24 f2
       -5 8 -13 28 40 -8 6 -13 -8 52 102 23 68 -4 36 -14
000070 0e 13 e4 e5 26 f0 18 18 fb 0e 1c 10 ec 0c 23 04
       14 19 -28 -27 38 -16 24 24 -5 14 28 16 -20 12 35 4
000080 0b f1 12 d4 f4 41 ef 06 24 2e 36 3b f8 e4 e7 56
       11 -15 18 -44 -12 65 -17 6 36 46 54 59 -8 -28 -25 86
000090 17 fb 2b f5 f1 cc 60 eb 25 2b 07 01 0a c6 ee 0a
       23 -5 43 -11 -15 -52 96 -21 37 43 7 1 10 -58 -18 10
0000a0 11 00 8a c4 29 3a d2 de c1 b7 13 f2 04 f0 81 f8
       17 0 -118 -60 41 58 -46 -34 -63 -73 19 -14 4 -16 -127 -8
0000b0 d7 2f 21 23 cc 06 c3 13 5e d4 f6 fa f7 47 f8 4f
       -41 47 33 35 -52 6 -61 19 94 -44 -10 -6 -9 71 -8 79
0000c0 e2 7c 02 d1 1d 0e d8 08 7d da 19 ca 05 ed 61 20
       -30 124 2 -47 29 14 -40 8 125 -38 25 -54 5 -19 97 32
0000d0 fd 01 ef dc 03 9e f8 68 06 33 0b e5 f3 22 fd de
       -3 1 -17 -36 3 -98 -8 104 6 51 11 -27 -13 34 -3 -34
0000e0 44 ef 24 ff 6d 19 c0 fb 70 f8 2c 04 ef f0 d3 17
       68 -17 36 -1 109 25 -64 -5 112 -8 44 4 -17 -16 -45 23
0000f0 fa bb f7 02 e6 f1 e7 f3 49 4e 1a fa 7b 02 e5 d8
       -6 -69 -9 2 -26 -15 -25 -13 73 78 26 -6 123 2 -27 -40

Conv2D;StatefulPartitionedCall/StatefulPartitionedCall/PartitionedCall_22/PartitionedCall/Conv2D i1 [196, 1, 1, 112]
000000 28 f4 ea 0e 14 ee 10 02 18 fa e3 1c f9 0e ee fb
       40 -12 -22 14 20 -18 16 2 24 -6 -29 28 -7 14 -18 -5
000010 09 0a e8 10 fa 0c 07 16 24 12 1c f1 fd c4 f2 05
       9 10 -24 16 -6 12 7 22 36 18 28 -15 -3 -60 -14 5
000020 03 d3 0f f9 15 23 ed fa eb 02 1a 45 30 e6 fb 0b
       3 -45 15 -7 21 35 -19 -6 -21 2 26 69 48 -26 -5 11
000030 08 e4 0d 11 15 b8 fc 11 7f 21 03 2f d9 fc bf 00
       8 -28 13 17 21 -72 -4 17 127 33 3 47 -39 -4 -65 0
000040 f8 1c 02 1f 14 e7 e4 0e fe d1 08 15 07 25 10 05
       -8 28 2 31 20 -25 -28 14 -2 -47 8 21 7 37 16 5
000050 f5 fc 11 1c e5 da 0d ef 24 07 22 08 ef db e1 29
       -11 -4 17 28 -27 -38 13 -17 36 7 34 8 -17 -37 -31 41
000060 0c 0f ce 0d fe e6 f8 fb 0b d9 e1 1b 01 fe f3 fd
       12 15 -50 13 -2 -26 -8 -5 11 -39 -31 27 1 -2 -13 -3
000070 fc dd ec cd f6 ea fd f1 cd 00 13 03 e8 ac ec 23
       -4 -35 -20 -51 -10 -22 -3 -15 -51 0 19 3 -24 -84 -20 35
000080 0d d2 d6 f9 31 ea 67 2c a3 d3 d5 ec 4c 1a ee 23
       13 -46 -42 -7 49 -22 103 44 -93 -45 -43 -20 76 26 -18 35
000090 e9 7d 21 14 d8 11 03 08 06 25 eb d7 ff f8 e0 0e
       -23 125 33 20 -40 17 3 8 6 37 -21 -41 -1 -8 -32 14
0000a0 e5 37 3c ce dc 11 28 61 ca e6 21 d4 04 ef b9 e8
       -27 55 60 -50 -36 17 40 97 -54 -26 33 -44 4 -17 -71 -24
0000b0 13 0c f7 11 06 28 fa 34 5e 7f d7 bd cf 56 9b e3
       19 12 -9 17 6 40 -6 52 94 127 -41 -67 -49 86 -101 -29
0000c0 0c f8 ff ee 26 0a d6 e6 04 0c 1b b7 03 cc 0f bd
       12 -8 -1 -18 38 10 -42 -26 4 12 27 -73 3 -52 15 -67
0000d0 d4 12 f8 ed 1b cd ce 2a de 07 0e 47 f9 0c 06 e7
       -44 18 -8 -19 27 -51 -50 42 -34 7 14 71 -7 12 6 -25
0000e0 12 13 24 ed fd e2 0c f0 fa e1 d6 de ec 23 03 14
       18 19 36 -19 -3 -30 12 -16 -6 -31 -42 -34 -20 35 3 20
0000f0 7f 06 36 07 f3 f1 d2 2e 0b 01 1d d9 b9 13 18 d8
       127 6 54 7 -13 -15 -46 46 11 1 29 -39 -71 19 24 -40

Conv2D;StatefulPartitionedCall/StatefulPartitionedCall/PartitionedCall_25/PartitionedCall/Conv2D i1 [12, 1, 1, 196]
000000 f5 f3 ea e3 e9 de ef e4 e7 ee ed 74 e8 e1 e9 e7
       -11 -13 -22 -29 -23 -34 -17 -28 -25 -18 -19 116 -24 -31 -23 -25
000010 eb fb fb 42 f1 df eb f0 ec 00 e6 e6 e9 f1 e6 e8
       -21 -5 -5 66 -15 -33 -21 -16 -20 0 -26 -26 -23 -15 -26 -24
000020 fa e2 eb 5d e2 fd e9 57 e7 e2 e7 20 e5 ee 63 f7
       -6 -30 -21 93 -30 -3 -23 87 -25 -30 -25 32 -27 -18 99 -9
000030 07 57 e9 f6 e9 eb f2 e5 e9 e2 e7 e4 ec df de f2
       7 87 -23 -10 -23 -21 -14 -27 -23 -30 -25 -28 -20 -33 -34 -14
000040 5e 7b ea e2 e6 e8 e7 e5 e6 05 ea e9 6a 06 2f 7f
       94 123 -22 -30 -26 -24 -25 -27 -26 5 -22 -23 106 6 47 127
000050 f3 f6 54 1f 4e ed de f2 e9 f2 df e9 e7 f2 ed e7
       -13 -10 84 31 78 -19 -34 -14 -23 -14 -33 -23 -25 -14 -19 -25
000060 e9 e5 6b e2 e3 e2 f9 fd 01 e6 38 e4 ec ef 54 f0
       -23 -27 107 -30 -29 -30 -7 -3 1 -26 56 -28 -20 -17 84 -16
000070 7b e3 e5 ee fe 3f eb e7 2d e8 ea 05 f1 e8 e5 f5
       123 -29 -27 -18 -2 63 -21 -25 45 -24 -22 5 -15 -24 -27 -11
000080 e0 f2 e3 42 eb 3e fa f2 f9 f5 f0 66 5b e7 e9 f7
       -32 -14 -29 66 -21 62 -6 -14 -7 -11 -16 102 91 -25 -23 -9
000090 03 e7 e3 f4 e7 63 e6 e3 1d f9 06 e6 04 05 e6 e9
       3 -25 -29 -12 -25 99 -26 -29 29 -7 6 -26 4 5 -26 -23
0000a0 e5 ee 59 f7 eb eb f2 28 e7 ed e9 ee f3 ed 48 ea
       -27 -18 89 -9 -21 -21 -14 40 -25 -19 -23 -18 -13 -19 72 -22
0000b0 ef 63 e9 e8 60 fc e8 39 f1 02 e4 fd fb e1 ee 54
       -17 99 -23 -24 96 -4 -24 57 -15 2 -28 -3 -5 -31 -18 84
0000c0 03 f0 22 19 fa e6 e4 e3 eb dd e8 e6 e8 ec de f5
       3 -16 34 25 -6 -26 -28 -29 -21 -35 -24 -26 -24 -20 -34 -11
0000d0 ef e3 e7 25 e6 eb e2 4d 44 da e5 df 08 ed e4 e3
       -17 -29 -25 37 -26 -21 -30 77 68 -38 -27 -33 8 -19 -28 -29
0000e0 ec e9 ec eb f8 48 4f ea e5 4e ed f8 44 e7 e5 e9
       -20 -23 -20 -21 -8 72 79 -22 -27 78 -19 -8 68 -25 -27 -23
0000f0 e5 75 fe ed f7 59 dc f2 e4 ec e9 e9 eb e9 ef f4
       -27 117 -2 -19 -9 89 -36 -14 -28 -20 -23 -23 -21 -23 -17 -12

FusedBatchNormV3;StatefulPartitionedCall/StatefulPartitionedCall/StatefulPartitionedCall_3/StatefulPartitionedCall/FusedBatchNormV3;depthwise;StatefulPartitionedCall/StatefulPartitionedCall/PartitionedCall_4/PartitionedCall/depthwise;depthwise;StatefulPartitionedCall/StatefulPartitionedCall/PartitionedCall_16/PartitionedCall/depthwise i1 [1, 3, 3, 140]
000000 9b a0 56 d4 c5 32 b9 cc ab e0 b2 f0 17 f9 86 64
       -101 -96 86 -44 -59 50 -71 -52 -85 -32 -78 -16 23 -7 -122 100
000010 a8 7f 81 e3 7f 5b c1 d8 81 7f f3 6e 7e db 3e 97
       -88 127 -127 -29 127 91 -63 -40 -127 127 -13 110 126 -37 62 -105
000020 f6 b9 7f 7f db a0 de bf eb 10 81 8d a4 ef 5b e6
       -10 -71 127 127 -37 -96 -34 -65 -21 16 -127 -115 -92 -17 91 -26
000030 16 95 e6 21 be ec 8b 2a 68 06 c2 c4 cc 40 81 f9
       22 -107 -26 33 -66 -20 -117 42 104 6 -62 -60 -52 64 -127 -7
000040 81 d4 ec eb 73 04 62 42 d2 85 bf 09 81 f5 c8 03
       -127 -44 -20 -21 115 4 98 66 -46 -123 -65 9 -127 -11 -56 3
000050 e4 81 81 81 09 d3 c8 65 d3 2f dc 98 b1 f3 06 66
       -28 -127 -127 -127 9 -45 -56 101 -45 47 -36 -104 -79 -13 6 102
000060 df ff cd 36 dd 81 81 79 68 73 99 57 7f 7f b3 a0
       -33 -1 -51 54 -35 -127 -127 121 104 115 -103 87 127 127 -77 -96
000070 49 b0 fd 6e 24 d8 ac 7f 48 13 d1 fa 12 94 a8 99
       73 -80 -3 110 36 -40 -84 127 72 19 -47 -6 18 -108 -88 -103
000080 bb bd 8d d3 22 d6 34 b2 81 a3 b2 8c 4d 24 8e 7f
       -69 -67 -115 -45 34 -42 52 -78 -127 -93 -78 -116 77 36 -114 127
000090 1e 3a 7f b9 a9 81 bc 9c 81 ef 94 e2 df c2 16 ce
       30 58 127 -71 -87 -127 -68 -100 -127 -17 -108 -30 -33 -62 22 -50
0000a0 9e 7f 81 5a 89 27 cc 81 97 9d d1 a0 e7 1f 57 7e
       -98 127 -127 90 -119 39 -52 -127 -105 -99 -47 -96 -25 31 87 126
0000b0 3d ca 0e 95 f6 c1 98 d4 7f df ae 81 11 c4 d1 34
       61 -54 14 -107 -10 -63 -104 -44 127 -33 -82 -127 17 -60 -47 52
0000c0 bb 81 b0 81 cf 92 b3 87 f0 45 a5 f3 a5 d8 81 bc
       -69 -127 -80 -127 -49 -110 -77 -121 -16 69 -91 -13 -91 -40 -127 -68
0000d0 b5 7f a3 aa 7f 74 de 45 77 3e b1 d8 b8 68 bf ca
       -75 127 -93 -86 127 116 -34 69 119 62 -79 -40 -72 104 -65 -54
0000e0 f7 b1 c5 56 28 0d 81 18 cd 27 cb 81 21 e4 bf 42
       -9 -79 -59 86 40 13 -127 24 -51 39 -53 -127 33 -28 -65 66
0000f0 20 de 63 31 81 07 ce 73 7d d8 97 fb c5 81 7f 35
       32 -34 99 49 -127 7 -50 115 125 -40 -105 -5 -59 -127 127 53

FusedBatchNormV3;StatefulPartitionedCall/StatefulPartitionedCall/StatefulPartitionedCall_7/StatefulPartitionedCall/FusedBatchNormV3;depthwise;StatefulPartitionedCall/StatefulPartitionedCall/PartitionedCall_8/PartitionedCall/depthwise;depthwise;StatefulPartitionedCall/StatefulPartitionedCall/PartitionedCall_16/PartitionedCall/depthwise i1 [1, 3, 3, 140]
000000 d5 db 90 eb bd d1 94 25 9e 0f fb 18 b7 7f fe e5
       -43 -37 -112 -21 -67 -47 -108 37 -98 15 -5 24 -73 127 -2 -27
000010 b7 cc da af 4d 31 d3 9b 7f 49 17 7f f3 c0 9e d2
       -73 -52 -38 -81 77 49 -45 -101 127 73 23 127 -13 -64 -98 -46
000020 25 f6 d7 01 aa b0 fe 31 81 ed ca f6 da e2 00 7f
       37 -10 -41 1 -86 -80 -2 49 -127 -19 -54 -10 -38 -30 0 127
000030 b5 05 8a cf 0d 98 e1 25 f2 b6 c8 77 cb de d5 1e
       -75 5 -118 -49 13 -104 -31 37 -14 -74 -56 119 -53 -34 -43 30
000040 b9 7f bd b3 2a e7 4d d8 b1 1c 0d ff 22 09 81 3c
       -71 127 -67 -77 42 -25 77 -40 -79 28 13 -1 34 9 -127 60
000050 b8 ff e7 c2 f1 eb 9f 7f fd 52 e7 43 1e 34 2e f6
       -72 -1 -25 -62 -15 -21 -97 127 -3 82 -25 67 30 52 46 -10
000060 65 c0 be ab 09 bc f6 d8 7f fe df 82 60 62 f0 7d
       101 -64 -66 -85 9 -68 -10 -40 127 -2 -33 -126 96 98 -16 125
000070 16 f0 d1 7c 3f af c2 e7 dc 44 37 33 7f c0 cb 14
       22 -16 -47 124 63 -81 -62 -25 -36 68 55 51 127 -64 -53 20
000080 03 e2 04 08 c2 f7 1e ec 06 a5 a9 19 15 05 ca 9f
       3 -30 4 8 -62 -9 30 -20 6 -91 -87 25 21 5 -54 -97
000090 f6 fd af 07 e0 dd 1d e0 aa c5 cb d4 a6 1e 16 be
       -10 -3 -81 7 -32 -35 29 -32 -86 -59 -53 -44 -90 30 22 -66
0000a0 bd f6 e8 a8 c4 7f cc e9 a9 c0 b6 7f a1 91 b0 eb
       -67 -10 -24 -88 -60 127 -52 -23 -87 -64 -74 127 -95 -111 -80 -21
0000b0 49 d7 01 d5 1d d5 01 7f c6 13 d4 f0 ed 55 7f 09
       73 -41 1 -43 29 -43 1 127 -58 19 -44 -16 -19 85 127 9
0000c0 2e bb 7f 63 1d 02 e5 35 a8 f7 d7 32 c5 e1 2f cd
       46 -69 127 99 29 2 -27 53 -88 -9 -41 50 -59 -31 47 -51
0000d0 f8 17 57 be 30 e2 3c e8 7f db 33 3d 9b 22 eb 0c
       -8 23 87 -66 48 -30 60 -24 127 -37 51 61 -101 34 -21 12
0000e0 24 d0 ce ca 1e e2 d4 4d c2 04 26 7f e4 a4 cb ff
       36 -48 -50 -54 30 -30 -44 77 -62 4 38 127 -28 -92 -53 -1
0000f0 18 b7 c0 e3 09 2f e2 5b 7c fb 7f 08 0d ab f1 40
       24 -73 -64 -29 9 47 -30 91 124 -5 127 8 13 -85 -15 64

FusedBatchNormV3;StatefulPartitionedCall/StatefulPartitionedCall/StatefulPartitionedCall_11/StatefulPartitionedCall/FusedBatchNormV3;depthwise;StatefulPartitionedCall/StatefulPartitionedCall/PartitionedCall_12/PartitionedCall/depthwise;depthwise;StatefulPartitionedCall/StatefulPartitionedCall/PartitionedCall_16/PartitionedCall/depthwise i1 [1, 3, 3, 140]
000000 c5 81 c8 2d 66 f0 7f 09 dd bc 32 7f bf 08 ce d8
       -59 -127 -56 45 102 -16 127 9 -35 -68 50 127 -65 8 -50 -40
000010 fa ee ad 9a 7f 50 7f fb 7f 6f 7f d6 c0 7f 5a 25
       -6 -18 -83 -102 127 80 127 -5 127 111 127 -42 -64 127 90 37
000020 fa f7 ab d1 7f 45 db 7f 7f aa e5 0b fe 04 d7 bd
       -6 -9 -85 -47 127 69 -37 127 127 -86 -27 11 -2 4 -41 -67
000030 c8 7f 7f c1 0b d3 7f 7f d1 0b 7f 3a 36 ab 39 bd
       -56 127 127 -63 11 -45 127 127 -47 11 127 58 54 -85 57 -67
000040 d4 4b 09 7f 9c 08 9e c0 da 7f 6b eb db c9 81 c9
       -44 75 9 127 -100 8 -98 -64 -38 127 107 -21 -37 -55 -127 -55
000050 67 be fc 93 47 ac a8 81 13 d8 23 ef 04 f2 7f d7
       103 -66 -4 -109 71 -84 -88 -127 19 -40 35 -17 4 -14 127 -41
000060 da c6 cc 42 7f f6 a7 81 f3 7a ef 07 7f 90 15 9a
       -38 -58 -52 66 127 -10 -89 -127 -13 122 -17 7 127 -112 21 -102
000070 7f b0 e2 62 b3 b7 83 d4 7e d0 be 7f e7 7f 0f ce
       127 -80 -30 98 -77 -73 -125 -44 126 -48 -66 127 -25 127 15 -50
000080 4b c0 78 d0 7f 09 9b e4 7f c0 35 c5 98 ba 7f 5c
       75 -64 120 -48 127 9 -101 -28 127 -64 53 -59 -104 -70 127 92
000090 f2 01 31 bc 20 b7 ab 41 d1 e4 f0 d3 f0 a8 c1 ac
       -14 1 49 -68 32 -73 -85 65 -47 -28 -16 -45 -16 -88 -63 -84
0000a0 15 40 42 cc 3b 1f 31 07 e3 32 22 0b 7f 24 9f cf
       21 64 66 -52 59 31 49 7 -29 50 34 11 127 36 -97 -49
0000b0 2f 04 7f 1e 20 33 5c c0 b0 da cb e8 7f 09 4e 14
       47 4 127 30 32 51 92 -64 -80 -38 -53 -24 127 9 78 20
0000c0 19 14 1b 33 f8 7a 66 c9 05 dd 25 bb ad 2a 7f 16
       25 20 27 51 -8 122 102 -55 5 -35 37 -69 -83 42 127 22
0000d0 76 19 b4 1a 2d cb d3 e0 f7 e0 31 df 52 36 3a d3
       118 25 -76 26 45 -53 -45 -32 -9 -32 49 -33 82 54 58 -45
0000e0 d0 90 e9 b6 f8 cb 27 08 05 07 db de da e5 b3 5f
       -48 -112 -23 -74 -8 -53 39 8 5 7 -37 -34 -38 -27 -77 95
0000f0 c5 0f e8 d4 10 0b f0 66 32 8d 29 3e 23 fe ca 7f
       -59 15 -24 -44 16 11 -16 102 50 -115 41 62 35 -2 -54 127

FusedBatchNormV3;StatefulPartitionedCall/StatefulPartitionedCall/StatefulPartitionedCall_15/StatefulPartitionedCall/FusedBatchNormV3;depthwise;StatefulPartitionedCall/StatefulPartitionedCall/PartitionedCall_16/PartitionedCall/depthwise i1 [1, 3, 3, 140]
000000 7f 7f 70 65 ad 81 7f 7f e1 7f 47 61 7a 53 9a 95
       127 127 112 101 -83 -127 127 127 -31 127 71 97 122 83 -102 -107
000010 66 7f c7 71 eb d2 7f 4e 12 7f cf 53 e7 3e e3 7f
       102 127 -57 113 -21 -46 127 78 18 127 -49 83 -25 62 -29 127
000020 8e 36 61 7f 59 9b 7f 6c b1 b1 7e 58 fa 81 39 81
       -114 54 97 127 89 -101 127 108 -79 -79 126 88 -6 -127 57 -127
000030 81 7f 83 6c d1 57 20 7f 0c 81 7f ca 7b 7f 7f 81
       -127 127 -125 108 -47 87 32 127 12 -127 127 -54 123 127 127 -127
000040 99 e6 7f 68 69 7f 7f 47 0d 6c b6 53 90 63 7b 03
       -103 -26 127 104 105 127 127 71 13 108 -74 83 -112 99 123 3
000050 61 b3 71 a8 37 5a 7f bc 3c 7f 85 60 48 e6 4a dd
       97 -77 113 -88 55 90 127 -68 60 127 -123 96 72 -26 74 -35
000060 9a d1 b5 ef 7f be e0 84 85 76 46 33 54 81 bd d3
       -102 -47 -75 -17 127 -66 -32 -124 -123 118 70 51 84 -127 -67 -45
000070 4b 7f 7f 94 56 89 22 88 64 83 7f 3c 84 3a 6f 98
       75 127 127 -108 86 -119 34 -120 100 -125 127 60 -124 58 111 -104
000080 1b 9e 7f 96 fd 62 7f 17 7f cf 7f b7 44 4e b6 28
       27 -98 127 -106 -3 98 127 23 127 -49 127 -73 68 78 -74 40
000090 33 a3 49 5b ce 46 35 bc 5d 5c 81 c9 ed 43 08 45
       51 -93 73 91 -50 70 53 -68 93 92 -127 -55 -19 67 8 69
0000a0 d6 eb 3b 7f 12 3f e5 6b 9e 19 3c 68 e1 2c 11 2b
       -42 -21 59 127 18 63 -27 107 -98 25 60 104 -31 44 17 43
0000b0 35 81 c3 59 dc 7f 38 ba e1 a1 af f8 a9 4e af 41
       53 -127 -61 89 -36 127 56 -70 -31 -95 -81 -8 -87 78 -81 65
0000c0 cd 45 0b 49 18 b1 61 cb 61 7e 3a b5 97 45 78 7b
       -51 69 11 73 24 -79 97 -53 97 126 58 -75 -105 69 120 123
0000d0 45 3a b9 bf f1 7f cb 50 9a 37 3e 11 f8 ad 31 e9
       69 58 -71 -65 -15 127 -53 80 -102 55 62 17 -8 -83 49 -23
0000e0 28 2e 3d d5 28 90 b2 68 23 03 14 d6 bd 96 fa 63
       40 46 61 -43 40 -112 -78 104 35 3 20 -42 -67 -106 -6 99
0000f0 64 dd 1c ad a9 4b 1c ca 38 b4 7f b4 30 1c 47 9d
       100 -35 28 -83 -87 75 28 -54 56 -76 127 -76 48 28 71 -99

FusedBatchNormV3;StatefulPartitionedCall/StatefulPartitionedCall/StatefulPartitionedCall_19/StatefulPartitionedCall/FusedBatchNormV3;depthwise;StatefulPartitionedCall/StatefulPartitionedCall/PartitionedCall_20/PartitionedCall/depthwise i1 [1, 3, 3, 112]
000000 85 8a a7 92 45 4d 81 92 a5 82 54 75 6c 98 9c 81
       -123 -118 -89 -110 69 77 -127 -110 -91 -126 84 117 108 -104 -100 -127
000010 55 60 74 7f c3 57 81 81 84 97 7f 7f 5e 7f 8c 97
       85 96 116 127 -61 87 -127 -127 -124 -105 127 127 94 127 -116 -105
000020 5c 7f 9b 81 81 6f 3f b0 7f 81 7f 7f 81 70 7f 81
       92 127 -101 -127 -127 111 63 -80 127 -127 127 127 -127 112 127 -127
000030 7f 94 71 81 a6 89 8a 84 6f 8b 50 9e 68 81 a3 4e
       127 -108 113 -127 -90 -119 -118 -124 111 -117 80 -98 104 -127 -93 78
000040 7f 81 50 98 74 44 7f b5 81 6d 81 81 91 81 81 81
       127 -127 80 -104 116 68 127 -75 -127 109 -127 -127 -111 -127 -127 -127
000050 83 7f 81 95 02 81 9a 81 7f 81 81 8f 7f 7f a3 9e
       -125 127 -127 -107 2 -127 -102 -127 127 -127 -127 -113 127 127 -93 -98
000060 81 81 67 7f 90 7f 7f 6a 7f 81 7f 75 8a 81 98 a0
       -127 -127 103 127 -112 127 127 106 127 -127 127 117 -118 -127 -104 -96
000070 f7 f4 a1 f1 fd 2e e9 b7 ec e5 07 4f 52 d4 9d e6
       -9 -12 -95 -15 -3 46 -23 -73 -20 -27 7 79 82 -44 -99 -26
000080 10 1d 24 03 dd 4a ee ec f5 df 33 5f 48 35 a3 c0
       16 29 36 3 -35 74 -18 -20 -11 -33 51 95 72 53 -93 -64
000090 48 5f de b0 cd 56 20 cb 32 a0 66 54 e6 44 2f e9
       72 95 -34 -80 -51 86 32 -53 50 -96 102 84 -26 68 47 -23
0000a0 56 ec 39 d8 d8 d3 b2 fe 1b bf 9f 21 18 b4 d1 8e
       86 -20 57 -40 -40 -45 -78 -2 27 -65 -97 33 24 -76 -47 -114
0000b0 56 ee 17 f4 35 2d 53 c8 dd 4c f4 01 13 f9 f7 e9
       86 -18 23 -12 53 45 83 -56 -35 76 -12 1 19 -7 -9 -23
0000c0 f2 47 ef fb de f8 e2 97 32 e6 f1 f1 57 5a 81 01
       -14 71 -17 -5 -34 -8 -30 -105 50 -26 -15 -15 87 90 -127 1
0000d0 e9 e9 1d 4d c2 39 6d 57 47 8c 44 28 da c8 85 f3
       -23 -23 29 77 -62 57 109 87 71 -116 68 40 -38 -56 -123 -13
0000e0 92 a3 81 92 33 40 97 7f ac 81 4a 5b 53 a3 81 84
       -110 -93 -127 -110 51 64 -105 127 -84 -127 74 91 83 -93 -127 -124
0000f0 5d 53 69 5f ce 6e 84 9f 8c a3 4b 68 3f 52 55 8b
       93 83 105 95 -50 110 -124 -97 -116 -93 75 104 63 82 85 -117
